name: "FusionNet"

input: "data"
input_dim: 10
input_dim: 1
input_dim: 50
input_dim: 192

input: "VisualNet_data"
input_dim: 10
input_dim: 3
input_dim: 224
input_dim: 224

input: "label"
input_dim: 10
input_dim: 1
input_dim: 1
input_dim: 1

#####  HapticNet  #######
layer {
  name: "conv1"
  type: "Convolution"
  bottom: "data"
  top: "conv1"
  param {
    lr_mult: 1
    decay_mult: 1
  }
  param {
    lr_mult: 2
    decay_mult: 0
  }
  convolution_param {
    num_output: 50
    kernel_h: 3
    kernel_w: 3
    pad: 1
    stride: 1
    weight_filler {
      type: "xavier"
    }
    bias_filler {
      type: "constant"
    }
  }
}

layer {
  name: "relu1"
  type: "ReLU"
  bottom: "conv1"
  top: "conv1"
}
layer {
  name: "pool1"
  type: "Pooling"
  bottom: "conv1"
  top: "pool1"
  pooling_param {
    pool: MAX
    kernel_size: 2
    stride: 2
  }
}

layer {
  name: "norm1"
  type: "LRN"
  bottom: "pool1"
  top: "norm1"
  lrn_param {
    local_size: 5
    alpha: 0.0001
    beta: 0.75
  }
}

layer {
  name: "conv2"
  type: "Convolution"
  bottom: "norm1"
  #bottom: "pool1"
  top: "conv2"
  param {
    lr_mult: 1
    decay_mult: 1
  }
  param {
    lr_mult: 2
    decay_mult: 0
  }
  convolution_param {
    num_output: 100
    kernel_size: 3
    stride: 1
    pad: 1
    weight_filler {
      type: "xavier"
    }
    bias_filler {
      type: "constant"
    }
  }
}

layer {
  name: "relu2"
  type: "ReLU"
  bottom: "conv2"
  top: "conv2"
}
layer {
  name: "pool2"
  type: "Pooling"
  bottom: "conv2"
  top: "pool2"
  pooling_param {
    pool: MAX
    kernel_size: 2
    stride: 2
  }
}
layer {
  name: "conv3"
  type: "Convolution"
  bottom: "pool2"
  top: "conv3"
  param {
    lr_mult: 1
    decay_mult: 1
  }
  param {
    lr_mult: 2
    decay_mult: 0
  }
  convolution_param {
    num_output: 150
    kernel_size: 3
    stride: 1
    pad: 1
    weight_filler {
      type: "xavier"
    }
    bias_filler {
      type: "constant"
    }
  }
}

layer {
  name: "relu3"
  type: "ReLU"
  bottom: "conv3"
  top: "conv3"
}
layer {
  name: "pool3"
  type: "Pooling"
  bottom: "conv3"
  top: "pool3"
  pooling_param {
    pool: MAX
    kernel_size: 2
    stride: 2
  }
}

layer {
  name: "conv4"
  type: "Convolution"
  bottom: "pool3"
  top: "conv4"
  param {
    lr_mult: 1
    decay_mult: 1
  }
  param {
    lr_mult: 2
    decay_mult: 0
  }
  convolution_param {
    num_output: 200
    kernel_size: 3
    stride: 1
    pad: 1
    weight_filler {
      type: "xavier"
    }
    bias_filler {
      type: "constant"
    }
  }
}

layer {
  name: "relu4"
  type: "ReLU"
  bottom: "conv4"
  top: "conv4"
}
layer {
  name: "pool4"
  type: "Pooling"
  bottom: "conv4"
  top: "pool4"
  pooling_param {
    pool: MAX
    kernel_size: 2
    stride: 2
  }
}

# full connected
layer {
  name: "ip1-t"
  type: "Convolution"
  bottom: "pool4"
  top: "ip1"
  param {
    lr_mult: 1
    decay_mult: 1
  }
  param {
    lr_mult: 2
    decay_mult: 0
  }
  convolution_param {
    num_output: 400
    kernel_h: 4
    kernel_w: 12
    stride: 1
    weight_filler {
      type: "xavier"
    }
    bias_filler {
      type: "constant"
    }
  }
}
layer {
  name: "ip1-relu1"
  type: "ReLU"
  bottom: "ip1"
  top: "ip1"
}
layer {
  name: "drop1"
  type: "Dropout"
  bottom: "ip1"
  top: "ip1"
  dropout_param {
    dropout_ratio: 0.5
  }
}

layer {
  name: "ip2-t"
  type: "Convolution"
  bottom: "ip1"
  top: "ip2"
  param {
    lr_mult: 1
    decay_mult: 1
  }
  param {
    lr_mult: 2
    decay_mult: 0
  }
  convolution_param {
    num_output: 250
    kernel_size: 1
    stride: 1
    weight_filler {
      type: "xavier"
    }
    bias_filler {
      type: "constant"
    }
  }
}
layer {
  name: "ip2-relu2"
  type: "ReLU"
  bottom: "ip2"
  top: "ip2"
}

####### VisualNet ######

layer {             # Top shape: 10 96 55 55
  name: "TCNN_conv1"
  type: "Convolution"
  bottom: "VisualNet_data"
  top: "TCNN_conv1"
  convolution_param {
    num_output: 96
    kernel_size: 11
    stride: 4
  }
}
layer {
  name: "TCNN_relu1"
  type: "ReLU"
  bottom: "TCNN_conv1"
  top: "TCNN_conv1"
}
layer {             # Top shape: 10 96 27 27
  name: "TCNN_pool1"
  type: "Pooling"
  bottom: "TCNN_conv1"
  top: "TCNN_pool1"
  pooling_param {
    pool: MAX
    kernel_size: 3
    stride: 2
  }
}
layer {
  name: "TCNN_norm1"
  type: "LRN"
  bottom: "TCNN_pool1"
  top: "TCNN_norm1"
  lrn_param {
    local_size: 5
    alpha: 0.0001
    beta: 0.75
  }
}
layer {           
  name: "TCNN_conv2"  # Top shape: 10 256 27 27
  type: "Convolution"
  bottom: "TCNN_norm1"
  top: "TCNN_conv2"
  convolution_param {
    num_output: 256
    pad: 2
    kernel_size: 5
    group: 2
  }
}
layer {
  name: "TCNN_relu2"
  type: "ReLU"
  bottom: "TCNN_conv2"
  top: "TCNN_conv2"
}
layer {             # Top shape: 10 256 13 13
  name: "TCNN_pool2"
  type: "Pooling"
  bottom: "TCNN_conv2"
  top: "TCNN_pool2"
  pooling_param {
    pool: MAX
    kernel_size: 3
    stride: 2
  }
}
layer {
  name: "TCNN_norm2"
  type: "LRN"
  bottom: "TCNN_pool2"
  top: "TCNN_norm2"
  lrn_param {
    local_size: 5
    alpha: 0.0001
    beta: 0.75
  }
}
layer {             #  Top shape: 10 384 13 13
  name: "TCNN_conv3"
  type: "Convolution"
  bottom: "TCNN_norm2"
  top: "TCNN_conv3"
  convolution_param {
    num_output: 384
    pad: 1
    kernel_size: 3
  }
}
layer {
  name: "TCNN_relu3"
  type: "ReLU"
  bottom: "TCNN_conv3"
  top: "TCNN_conv3"
}                         # 3-th conv feature map

#######   adding a average pooling layer (kernel size 13*13, stride ..., ) ########
layer {
  name: "TCNN_energy3"
  type: "Pooling"
  bottom: "TCNN_conv3"
  top: "TCNN_energy3"
  pooling_param {
    pool: AVE
    kernel_size: 13
    stride: 2
  }
}


#####          1*1 convolution layer          ######
layer {                               
  name: "TCNN_fc6-c"
  type: "Convolution"
  bottom: "TCNN_energy3"
  top: "TCNN_fc6"
  convolution_param {
    num_output: 300
    kernel_size: 1
    weight_filler {
      type: "xavier"
    }
    bias_filler {
      type: "constant"
    }
  }
}
layer {
  name: "TCNN_relu6"
  type: "ReLU"
  bottom: "TCNN_fc6"
  top: "TCNN_fc6"
}
layer {
  name: "TCNN_drop6"
  type: "Dropout"
  bottom: "TCNN_fc6"
  top: "TCNN_fc6"
  dropout_param {
    dropout_ratio: 0.5
  }
}
layer {
  name: "TCNN_fc7-c"
  type: "Convolution"
  bottom: "TCNN_fc6"
  top: "TCNN_fc7"
  convolution_param {
    num_output: 250  #should be 250 which is consistent to HapticNet (rather 300)
    kernel_size: 1
    weight_filler {
      type: "xavier"
    }
    bias_filler {
      type: "constant"
    }
  }
}
layer {
  name: "TCNN_relu7"
  type: "ReLU"
  bottom: "TCNN_fc7"
  top: "TCNN_fc7"
}
#layer {
#  name: "TCNN_drop7"
#  type: "Dropout"
#  bottom: "TCNN_fc7"
#  top: "TCNN_fc7"
#  dropout_param {
#    dropout_ratio: 0.5
#  }
#}
#layer {
#  name: "TCNN_fc8-c"
#  type: "Convolution"
#  bottom: "TCNN_fc7"
#  top: "TCNN_fc8"
#  convolution_param {
#    num_output: 69
#    kernel_size: 1
#    weight_filler {
#      type: "xavier"
#    }
#    bias_filler {
#      type: "constant"
#    }
#  }
#}

#################### fusion #################

layer {
  name: "FusionNet_concat"
  bottom: "ip2"
  bottom: "TCNN_fc7"
  top: "FusionNet_concate"
  type: "Concat"
  concat_param {
    axis: 1
  }
  include {
    phase: TRAIN
  }
}

# fusion layer
layer {
  name: "FusionNet_fc"
  type: "Convolution"
  bottom: "FusionNet_concate"
  top: "FusionNet_fc"
  param {
    lr_mult: 10
    decay_mult: 1
  }
  param {
    lr_mult: 20
    decay_mult: 0
  }
  convolution_param {
    num_output: 69
    kernel_size: 1
    stride: 1
    weight_filler {
      type: "xavier"
    }
    bias_filler {
      type: "constant"
      value: 0
    }
  }
  include {
    phase: TRAIN
  }
}

layer { 
  type: "SoftmaxWithLoss" 
  name: "loss" 
  top: "loss"
  bottom: "FusionNet_fc" 
  bottom: "label"
  loss_param { 
    #ignore_label: -1
    normalize: false 
  }
  include {
    phase: TRAIN
  }
}
